weights/2024-04-23 14:27:31/best.pt (torch, 63655 bytes, 17 tensors)

firstconv.0.weight f4 [16, 1, 1, 31]
00000000: 7cc0 d43c 4053 8dbc db1a 93bd bae7 773d
00000010: fe3f de3d 9759 a63d 398b 81bc 017e a33c
00000020: 7c87 bdbc e23c c6bd 1a96 7e3e b2ab 5d3e
00000030: f289 973d 9100 21bc 6b35 31be b618 0fbc
00000040: 0dea 223e c1eb 2b3e b325 373e d657 ac3a
00000050: b61e a4bc b4dc 93be e150 6abc b56f 243e
00000060: 83e1 f33d 34de 2f3e fe4b dfbd 9c07 36be
00000070: fb14 ccbd 8eac 7f3d 6d0c be3d 493b 8abe
00000080: a649 95bd 2e42 3a3e 2f92 2a3e ce8b 9b3c
00000090: 685e 31be 647d c4bc fe7e 0e39 a9ed 123e
000000a0: c6f7 97bb a8f6 debd c8cc ce3d 82a4 c7bd
000000b0: 3437 713d 0b07 2f3e 1755 a23d ca9c abbd
000000c0: 1c24 9c3d 38ce 3d3d e43c 30bd 8ab6 21bc
000000d0: d1b6 25be db26 593e 6ce7 d53d a45e 393d
000000e0: 4e7c 82be 3fe7 6b3c 166d 673c 2d81 743e
000000f0: 817e 33be eaf0 3ebe e9da 383e 2018 813e
00000100: 9845 4a3c 5d7c 64be b0c7 2ebe 707f 943d
00000110: 9bf7 78bd 3553 9e3d 0bde 223e 69ee 543e
00000120: 2315 083d ce35 ad3b d650 e9bd 5df8 8f3d
00000130: 2981 82be 9b07 0dbd 72a3 53bd 20ca 0abc
00000140: ec20 993d b6b6 ab3d aa5c 063b d567 8bbd
00000150: a9d8 9fbd 48bb 3dbe 48e8 4fbd cca4 fa3d
00000160: 6bf4 35be 7d7d 01be 482b aa3c 2e4c 8a3d
00000170: 339c 1c3d c396 833b 0d5f 8abe 2258 813e
00000180: ad87 593e 1ae3 1b3d 2c4a 1fbe e923 2abd
00000190: 2c4a a13d 5fb0 23bd 8787 a6bd 0f61 11be
000001a0: 83fb 39bd e0a8 a63b 2ba1 cdbc d0bb 8b3e
000001b0: 7360 adbd 4097 543d fce2 ab3b c93b c73c
000001c0: f64c 423d 35d0 a8bd 6bfa 03bc 440d 493e
000001d0: 099a dbbd 2f6f 443e 74c1 a33c 0fe1 203e
000001e0: acb8 c4bd ae06 34bd 8a44 babd ac71 3fbe
000001f0: 443f 25be b523 7abc 3b27 1e3e 3360 07be
00000200: 4ac4 b1bd e170 e0bd b53b 543e 865a ab3d
00000210: 6552 c1bd 6016 0bbe 29fe a7bd a983 853e
00000220: 3af9 febc a665 3abe 22aa 27be a40f 3c3e
00000230: 768e 043e 8022 03be 0230 16bd 8980 24be
00000240: 6d67 763d 3ea5 4d3e f87d 02be 7d94 72bd
00000250: 48fa 70bd e5dc 3e3e 0b57 923d 9b71 46be
00000260: 562f 613d 4557 ccbd 8879 7c3d 34b2 9e3c
00000270: 00a5 31bd d594 80bd 834e 51ba 71a7 d43c
00000280: f89d 27bd ea42 653e 6f87 4a3e e5fd 1abc
00000290: 134e 953d 5c6d c93d 594c c23d 0fe2 b5bd
000002a0: d82c 963c 2fe4 a5bb f323 15bd c645 0cbe
000002b0: ad5a 4bbe 3930 5fbe d83f 20be a699 2abe
000002c0: 6284 43bd a47a 34be a1c0 b1bd a928 213c
000002d0: 41c8 a73d b145 613d e4a8 b03d c92c c23d
000002e0: 7049 0f3e 0e89 2b3e aeb6 c9be 5214 693d
000002f0: 245b 543e b79a 383c 783d b2bc 910f bc3b
00000300: 75d0 ba3d b45c 94bc cbeb a73d 1693 323d
00000310: a37e e13d da52 d5bd 790a b4bd 2b6d b6bc
00000320: ab2e 453e 0b32 c53c a662 623d e0ca 8dbd
00000330: 1711 a3bd dff0 593d f37a 3a3d 69a0 afbc
00000340: 48e7 c73d 7ffc a43c 243c 1cbe a0c1 913d
00000350: bd67 cc3d c1b5 d03d 5787 7ebb 4af2 9dbe
00000360: fc20 d8bd ad46 1bbe c2b8 a63e 85d4 223e
00000370: 40da 71bc ddf1 f4bd dc94 f7bc c693 1d3b
00000380: 9efd 883e 9ffb 15bd 9463 b4bd e91b 9cbd
00000390: 3e05 c7bc 3264 dc3b d207 323e 9fd2 96bd
000003a0: c1e1 4fbd 2839 b5bd 576d 973d f15e 1d3c
000003b0: 8546 093e 9e11 b1bc 1a11 dcbd efb7 6d3d
000003c0: 83da ff3c e6de c53a 4882 0dbd 0037 18be
000003d0: 270d bbbd 160d 163e 9c7d 553e 0f18 01be
000003e0: 46fe 97be 48bd 67bd 8956 27be 87c5 e1bb
000003f0: 1986 4dbe 8bae 573c 6dfd 643d 9aa8 91bd
0.02597069 -0.01725161 -0.07182857 0.060523726 0.10852049 0.08122557 -0.015813457 0.019957544
-0.023135893 -0.09679581 0.24861947 0.21647528 0.07399358 -0.009826795 -0.17305534 -0.008733919
0.15909596 0.16789152 0.17885475 0.0013148736 -0.020034175 -0.2887932 -0.01430151 0.16058238
0.11908247 0.17174608 -0.10903166 -0.1777634 -0.09964939 0.06242042 0.09279714 -0.26998356
-0.07289438 0.18189308 0.16657327 0.018987563 -0.1732117 -0.023985572 0.00013589484 0.14348473
-0.004637691 -0.1088689 0.10097653 -0.09748174 0.058890536 0.1709253 0.07926386 -0.083795145
0.07624075 0.046339244 -0.04302682 -0.009870181 -0.1618302 0.21206228 0.10444531 0.045256272
-0.25485462 0.014398395 0.014125129 0.23877402 -0.17528726 -0.18646589 0.18052258 0.25213718
0.012345694 -0.22313066 -0.17068362 0.07250869 -0.06078301 0.07730714 0.15905015 0.20794071
0.033223283 0.005285955 -0.11392371 0.070297934 -0.25489166 -0.03443108 -0.051669545 -0.008471042
0.074769825 0.08384459 0.002050201 -0.06806914 -0.078049965 -0.18528473 -0.05075863 0.12238464
-0.1776902 -0.12645526 0.020772591 0.06752811 0.0382349 0.004015775 -0.27025643 0.25262552
0.21243162 0.038058378 -0.15555638 -0.041538153 0.07875475 -0.039963122 -0.081313185 -0.14197181
-0.045405876 0.0050860494 -0.025101265 0.27291727 -0.08465662 0.051902056 0.0052455645 0.0243205
0.047436677 -0.08242837 -0.00805531 0.19633967 -0.10722739 0.19183038 0.019989707 0.15710853
-0.09605536 -0.043951683 -0.09095104 -0.18695706 -0.16137415 -0.015267302 0.15444653 -0.13220291
-0.08680017 -0.1095903 0.20725901 0.08366875 -0.09439544 -0.13582754 -0.08202774 0.2607701
-0.0311247 -0.18202838 -0.16373494 0.18365341 0.1294497 -0.1280613 -0.036666878 -0.16064657
0.06015723 0.20082566 -0.12743366 -0.05922364 -0.058832437 0.18638952 0.071455084 -0.19379275
0.054976784 -0.09977583 0.06163934 0.019372083 -0.043370247 -0.062783875 -0.00079844164 0.025958749
-0.040922135 0.22388807 0.19778226 -0.009459947 0.07290282 0.09835312 0.094872184 -0.08881008
0.01833193 -0.005062602 -0.036411237 -0.13698491 -0.19858809 -0.21795739 -0.15649354 -0.16660175
-0.047733672 -0.17624909 -0.08679319 0.009836354 0.08192492 0.054998104 0.08625963 0.09481198
0.13992858 0.16751501 -0.39397186 0.056904145 0.20737892 0.011267356 -0.021757826 0.0057391603
0.09121791 -0.01811061 0.08199271 0.043597303 0.11010482 -0.10416193 -0.0879106 -0.022268852
0.19256084 0.024071714 0.05526986 -0.06923461 -0.07962244 0.05320823 0.04552741 -0.021438794
0.0976091 0.02013993 -0.15257317 0.07117009 0.09980724 0.10190917 -0.0038837993 -0.30848914
-0.10553166 -0.1516368 0.32562834 0.15901382 -0.0147615075 -0.11960194 -0.030222349 0.0024044379
0.26755995 -0.036616918 -0.088080555 -0.07622511 -0.024294492 0.0067258114 0.17385796 -0.073643915
-0.050752405 -0.08848792 0.07393902 0.009605155 0.13405807 -0.021614846 -0.10745449 0.05803674
0.031232124 0.0015096336 -0.034548074 -0.14864731 -0.09133368 0.1465343 0.20848697 -0.12606834
-0.29686183 -0.056576997 -0.16341604 -0.006890002 -0.20070685 0.013164173 0.05590575 -0.07112236

firstconv.1.weight f4 [16]
00000000: 1141 063d c368 933d 46eb 9c3d c55f bd3d
00000010: b7de a13d 2cb6 043d 73b6 953d 4b6a 443d
00000020: f9c0 a83c a3c5 283c 34c6 613d b832 ad3d
00000030: 316c 943c f21e ad3c 0525 163d c399 8d3d
0.032776896 0.07197716 0.07662062 0.09246782 0.079038076 0.032400295 0.0731019 0.04795293
0.020599829 0.0103010265 0.05512066 0.084569395 0.018117996 0.02113292 0.0366564 0.06914093

firstconv.1.bias f4 [16]
00000000: 92c3 c839 28ac 66b8 9ada 5bb9 53b4 01b9
00000010: 4a1d b3b9 8b65 e939 82f3 1cba 6ee9 81ba
00000020: 9786 203a ea20 51ba cfe6 8039 26a3 6239
00000030: e76e 0e39 cf04 66ba f72a 2db9 8545 14b8
0.00038292684 -5.4996606e-05 -0.00020966903 -0.00012369575 -0.00034163363 0.0004451688 -0.0005987213 -0.0009911486
0.0006123571 -0.0007977622 0.00024586028 0.00021613817 0.0001358349 -0.000877452 -0.00016514571 -3.5350695e-05

firstconv.1.running_mean f4 [16]
00000000: 50cc e7bc 5f5a af3b c982 d53b 3347 e93a
00000010: 190a 743c 4222 acbb c2fd ec3b a174 4bbc
00000020: 391b c63c bdef 963d 97fb b7bc 85d5 bc3c
00000030: 7c7d d13d 64ec 8b3b 1647 52bc 2192 20bc
-0.028295666 0.0053513492 0.006515835 0.0017797708 0.014894986 -0.0052531073 0.0072323987 -0.012417943
0.024182903 0.07369945 -0.022458835 0.023051033 0.10229012 0.0042701233 -0.012834331 -0.009800465

firstconv.1.running_var f4 [16]
00000000: cfb7 a741 3f90 b140 af78 6341 0ead 0641
00000010: c922 b840 d3bb cb41 6a33 0241 63f4 d940
00000020: 8503 d941 5a98 ab42 4250 0d42 5762 b541
00000030: 8c8f eb42 04ee 0240 51e3 b241 5421 aa40
20.96475 5.548858 14.216964 8.41725 5.754246 25.466711 8.137552 6.8110824
27.126719 85.79756 35.328377 22.673018 117.780365 2.0457773 22.360994 5.3165684

depthwiseConv.0.weight f4 [32, 1, 2, 15]
00000000: f2bb 4ebd 1316 3d3d f046 67bc 2677 89bd
00000010: f040 f83d f6c0 e13d ca56 03be ceca 493c
00000020: 2bfd 94bd 9c00 893c 44bd 02be 2f77 cf3d
00000030: 14b9 cdbd d7a4 fabd 8adf 423e ddc0 823e
00000040: 0468 85bc cd7f bb3c d543 0bbe f797 2e3d
00000050: 612f b03d bc08 b83d 5653 c03c 69aa 4cbe
00000060: ecd7 dabd dfe9 82be 9359 d03d d6d1 6f3e
00000070: 8691 6a3e 3429 983d b107 963d d011 cf3d
00000080: d575 0abd 5e8d f2bb 46e4 8b3d ee75 0bbc
00000090: feb9 dbbd d06a 20be 30b3 443d bdd5 42be
000000a0: 3122 3ebe 808c d7bc ce03 23be 77ec 833c
000000b0: 8af3 36be e3b2 ec3c c790 203e a296 543b
000000c0: 0e2e fa3d 91a0 183e 7846 0c3e 47f6 3c3d
000000d0: aa01 c93d 039b 1c3e a096 33bd f1be dd3d
000000e0: ec74 f53a da1a b4bc 66b7 bbbd 8182 c63d
000000f0: 9f20 b93d 59b6 97be 2cf5 4bbd f7a6 1a3e
00000100: 8a38 683e 1f30 0c3e 3173 02be 6a6e 51be
00000110: e3cf 453e a47d 9fbc 5018 99bd dc08 32be
00000120: c767 19be c4fb c13c 64df 623e c39e aa3d
00000130: 19c2 783d 11f1 fb3c 3937 0dbe d3e7 0bbd
00000140: c491 a9bc 0ab3 4f3c 4820 213e c8b1 a3bd
00000150: 2ac2 083c b6b8 243d 543b b1bd cc7f 373e
00000160: 3227 48bb 7804 f23c 8476 22bd b840 0bbe
00000170: d416 a3bd 51e9 ad3e ca9c 003e 8bcb 83be
00000180: 09cd f9bd c819 203e a444 7a3d 1efd abbd
00000190: eb7f 27be 52b2 11bd 5c77 843e ce71 a73d
000001a0: 4621 21be bd1a d9bd 2f8a 443e 752e 05bd
000001b0: c183 1abe fb02 55bc aacb 043e 02cf 86bd
000001c0: ba37 b4bc 6ff6 cabd 6414 a43d 0f3f 793c
000001d0: 87c0 3ebd 496b f7bc 566d 9fbc 61e4 423c
000001e0: cf0c 953e db6c 483e f7c8 0ebe f758 883d
000001f0: 437e cabc 670c 0bbe 9257 1cbd c706 b93b
00000200: 6488 a03d 2b22 0abe 5b22 abbd 831c 2ebe
00000210: f0e7 0cbe 675a fabd 0111 d6bd 51dc 39bd
00000220: 55bd 123e b50f 80be 97b7 423d c055 0a3e
00000230: a31b 2dbd c6f4 84bd 7a77 59bd 9320 433e
00000240: 6fd3 373e 0f43 9abd 8306 0e3e 63e5 efbd
00000250: 9ea6 e13d 399a e73c 66d8 89bd e700 573e
00000260: 0822 113d bdaf c33b 59de 833d ef6e 66bd
00000270: 5a17 833d a412 1abe bc09 0fbe 1335 3ebe
00000280: 719c c8bd 537d 263d c3e6 fc3d 3a52 943d
00000290: 2e82 dcbc 7192 04be a429 1abe 39ea 1f3e
000002a0: 9238 5b3d b736 933d 2c66 d2bd c728 693c
000002b0: 9cd9 10bd 8fa5 0b3e 67f1 3b3e fe71 a03d
000002c0: 54f8 dcbd 3950 73be ab2d 1fbc 9573 333e
000002d0: 5b60 3abe accf 81bd 8d2a 853d e0d6 003e
000002e0: fbd7 b33d f4a6 d7bd 147d 213e 792c efbd
000002f0: dc5d aebd 367a 473e ba84 31bd ae77 f4bc
00000300: 5d97 303e 0813 10be e6d7 fbbd 68da 7d3e
00000310: dd0c 8b3d ca5c 2bbc be7e 4d3c 4789 51bd
00000320: cd0b 58be fe5e 003e 2660 78be 7a85 89bc
00000330: ef0e 113d 26e2 643e 458a 953e b7fc b9bd
00000340: 1594 b4bd 808d 11bc 6921 97bb 1319 353e
00000350: 555a 67be 9b33 ed3d c8fa 2ebd 654f e2bd
00000360: a9ad 263e f105 babd a109 b8bc 80c3 e43c
00000370: a46f 07be c9ff 173d ad3d 08be 8a55 2a3e
00000380: 00da cb3a 4553 2bbc f207 d1bd 303f 133e
00000390: 33f6 62be 8a3b 60be 4638 b33d 86ad 7a3e
000003a0: 07a8 b03b 1dac ef3d 987f 23bd 26b3 5cbd
000003b0: acb7 a0bd bfd3 b7bd 67c0 3fbd c253 d2bd
000003c0: 4cb8 82be 690a 2e3d aa6f d4bd ca4f 38bd
000003d0: 460d babc 95d5 00bb 5f70 90bc b377 49bd
000003e0: d7b5 86bc b923 fe3c 7655 cc3d 9a99 873d
000003f0: 7ef4 4ebe 4746 94bc 89aa c6bd 36e0 7cbd
-0.050472207 0.04616363 -0.014116034 -0.06712179 0.12121761 0.110231325 -0.12826076 0.012316419
-0.072748505 0.016723923 -0.12767512 0.10130154 -0.100450665 -0.12238472 0.19030586 0.25537768
-0.01628495 0.022888089 -0.13600095 0.042625394 0.08602787 0.08986041 0.023477238 -0.19986881
-0.10685715 -0.25569054 0.10173335 0.2341989 0.22907075 0.07429734 0.07325686 0.10110819
-0.03380378 -0.007402106 0.06830649 -0.008512003 -0.107288346 -0.15665746 0.04802245 -0.19026847
-0.1856773 -0.026312113 -0.1591942 0.016103966 -0.1786634 0.028893894 0.15680228 0.0032438417
0.122158155 0.14905001 0.13698757 0.046133306 0.098147705 0.15293507 -0.04384482 0.10827435
0.0018726862 -0.02198546 -0.0916584 0.096928604 0.09039425 -0.29631308 -0.04979436 0.15102755
0.22677818 0.13690232 -0.12739255 -0.20452276 0.19317584 -0.01946909 -0.0747534 -0.17386192
-0.14980994 0.023679622 0.2215553 0.08331063 0.06073198 0.030754598 -0.13790597 -0.03415663
-0.02069939 0.012676964 0.1573497 -0.079928935 0.008347074 0.040215217 -0.08653894 0.17919844
-0.003054094 0.029543146 -0.039663807 -0.13598907 -0.079633385 0.3396707 0.1255981 -0.25741228
-0.121973105 0.15634835 0.061100617 -0.08397888 -0.1635739 -0.03557045 0.25872314 0.081760034
-0.15735349 -0.10600803 0.19193338 -0.032515008 -0.15089323 -0.013001199 0.12968317 -0.06582452
-0.021999229 -0.09910285 0.08011702 0.015212788 -0.046570327 -0.030202525 -0.019461315 0.01189527
0.29111335 0.19572775 -0.1394385 0.06657594 -0.02471841 -0.1357895 -0.03816945 0.00564656
0.078385144 -0.13489597 -0.08356162 -0.17003064 -0.13760352 -0.12224274 -0.10452462 -0.045376126
0.14330037 -0.25011984 0.047538366 0.13509274 -0.042262685 -0.06491999 -0.053092457 0.19055395
0.1795175 -0.07532322 0.13869672 -0.11713674 0.11018108 0.028271781 -0.06730728 0.20996438
0.035432845 0.0059718774 0.06438894 -0.05625814 0.06400938 -0.15046173 -0.13968557 -0.18574934
-0.09795464 0.040646862 0.12348702 0.07242246 -0.026917543 -0.12946488 -0.15054947 0.15616693
0.053520747 0.071881704 -0.10273394 0.0142309135 -0.03536378 0.13637374 0.18353806 0.07834242
-0.10789552 -0.23761071 -0.009715478 0.1752456 -0.18200819 -0.063384384 0.065022565 0.12581968
0.087814294 -0.10529891 0.1577037 -0.11678404 -0.08513996 0.19480214 -0.04333947 -0.029842224
0.1724524 -0.1406976 -0.12297039 0.24790347 0.06789563 -0.010459134 0.012542425 -0.05115631
-0.21098252 0.12536237 -0.24255428 -0.01678728 0.035414632 0.22351894 0.29207054 -0.09081405
-0.08817307 -0.008883834 -0.004612137 0.17685346 -0.22593053 0.115821086 -0.042719632 -0.110502996
0.16277184 -0.090831645 -0.022465529 0.027925253 -0.13226181 0.03710917 -0.13304777 0.16634193
0.001555264 -0.010456865 -0.102065936 0.14379573 -0.2216423 -0.21897712 0.08750968 0.24480256
0.005391124 0.1170275 -0.039916605 -0.053881787 -0.07847533 -0.08975934 -0.04681435 -0.10269882
-0.25531232 0.042490397 -0.10372861 -0.044997968 -0.022711407 -0.0019658555 -0.017631708 -0.04918642
-0.01644413 0.031022893 0.09977238 0.06621094 -0.20210454 -0.018099917 -0.09700496 -0.06173726

depthwiseConv.1.weight f4 [32]
00000000: b137 383f 43e9 e63e 1c6c 693f 784e 733f
00000010: 400f 513f e34d 633f aac5 613f d584 613f
00000020: df8a 5e3f 904a 703f 580a 473f 501b 613f
00000030: d4b5 823f 975e 803f 87bc 713f 715f 833f
00000040: 4e02 1c3f 98a2 473f d71d e03e 7196 133f
00000050: 71f4 533f d641 4e3f 2b42 5a3f 4cac 4c3f
00000060: e3c6 2c3f dbe1 033f 3f69 843f 5c67 683f
00000070: 45df 523f 9605 653f 5df2 433f 0eb5 723f
0.7195998 0.4509984 0.91180587 0.9504161 0.81663895 0.8879072 0.88192236 0.8809331
0.8693065 0.93863773 0.7775016 0.879323 1.021174 1.0028867 0.94428295 1.0263501
0.60941017 0.77982473 0.43772766 0.5765143 0.82794863 0.8056921 0.85257214 0.79950404
0.6749098 0.51516503 1.0344619 0.90782714 0.8237193 0.8946165 0.7654169 0.9480752

depthwiseConv.1.bias f4 [32]
00000000: 0b7c adbe 977f 86bc eab0 10bf 87a3 15bf
00000010: d4cf d9be 78c6 01bf 7eb1 32bf cb58 1ebf
00000020: 6d34 01bf 2f02 00bf 84a0 bbbe 2c8c 1fbf
00000030: 5950 49bf aaa0 3bbf 6c29 57bf 7a41 58bf
00000040: c035 b13d cb55 a0be 73fd b23d 61c4 68bc
00000050: c795 9bbe 3268 12bf 7dc2 e7be c6a4 f9be
00000060: 1e88 a0be d7f8 9d3d c890 c7be da9e ffbe
00000070: dada c8be 7636 e9be b2ba c9be b96a 2abf
-0.338837 -0.016418261 -0.5651995 -0.5845265 -0.42541373 -0.50693464 -0.6980208 -0.6185424
-0.5047062 -0.5000333 -0.366459 -0.6232326 -0.78638226 -0.7329203 -0.8404758 -0.8447491
0.0865283 -0.31315455 0.08739748 -0.014206977 -0.3038771 -0.5719024 -0.4526557 -0.48758525
-0.3135385 0.07713478 -0.38977647 -0.49925882 -0.3922947 -0.45549363 -0.3940025 -0.66569096

depthwiseConv.1.running_mean f4 [32]
00000000: c440 d5b8 4c73 ceb8 e0d5 1cb8 23bb 4738
00000010: 4de9 a0b8 3049 7bb6 74c2 07b8 f993 7838
00000020: 32d1 8e39 b263 8d38 ae01 a4b7 e616 26b8
00000030: dfc9 d536 3caa 7e36 564a 0fb9 441e d3b8
00000040: f66f 3137 bc75 84b9 d20a 003a 5389 b0b9
00000050: 8565 0e36 ecd5 0c38 ac2e 25b8 4101 e037
00000060: 6088 9438 2ba2 5139 4c39 4838 6a24 d2b8
00000070: 12b6 e237 9a07 51b3 282a e039 aa1c 40b7
-0.00010168695 -9.844321e-05 -3.7392485e-05 4.7619582e-05 -7.67285e-05 -3.7444515e-06 -3.2367607e-05 5.9265618e-05
0.00027240213 6.7419736e-05 -1.9551106e-05 -3.959881e-05 6.3713956e-06 3.794804e-06 -0.00013665235 -0.000100669015
1.057609e-05 -0.0002526472 0.0004884425 -0.0003367165 2.121874e-06 3.357783e-05 -3.9382532e-05 2.6703465e-05
7.082592e-05 0.00019992205 4.7737078e-05 -0.00010020363 2.7026083e-05 -4.8668518e-08 0.00042756018 -1.1450766e-05

depthwiseConv.1.running_var f4 [32]
00000000: a317 f039 d60b 053a c997 453b b275 173b
00000010: 549f e93a 7c55 f13a 2fbb 9a3b f71d 433b
00000020: 3820 633b c248 603b cec0 ef39 14f0 fa39
00000030: 84ee f73a bf78 1d3b 6618 ab3a a850 b63a
00000040: ed14 9e39 8073 1039 ffbf bb38 2446 7038
00000050: f708 a83a 08b4 c83a 87bd f53a 68db 283c
00000060: 1e1f 5f39 de42 df38 0d92 f238 00e1 a039
00000070: aeaf 7d3a 11af da39 df58 ff3b 5d74 eb3a
0.00045793978 0.0005075311 0.0030150285 0.0023110923 0.0017823973 0.0018412317 0.004722021 0.00297725
0.0034656655 0.0034223055 0.00045729283 0.00047862588 0.0018915688 0.002402827 0.0013053536 0.0013909535
0.000301517 0.00013775937 8.952617e-05 5.7285783e-05 0.0012820055 0.0015312443 0.00187485 0.010306217
0.0002127853 0.000106459236 0.00011566663 0.00030685216 0.00096773624 0.00041710635 0.0077925767 0.0017963756

separableConv.0.weight f4 [32, 32, 1, 11]
00000000: 032d a13d 2f89 af3c 6ba6 943d d44f 493d
00000010: a594 133c 4147 03bd 2438 4fbd 67fd f3bb
00000020: 34f7 ea3a 3179 393c 73a3 b03d 48c0 8a3d
00000030: cc4e 553d 5636 123d c6c0 ad3c 5684 69ba
00000040: 0854 96bb 1ce2 84bb 58c8 9ebc 7f0b 9fbc
00000050: 3c00 653c 0756 0e3d f3c8 203e 9fe9 fe3d
00000060: 285b b43c 3ce7 55bd 6f52 b5bd 1e85 bbbd
00000070: e60b 40bd d8e9 c23b 1418 573d ddf1 103e
00000080: aeb9 353e 459e 443e 5623 163e 406c f93d
00000090: 1ddf 893c 7d72 86bd 484f b5bd a14e ba3c
000000a0: 3bf6 0f3d d0e9 953d fdec 5d3d e63a 1c3e
000000b0: ca8a 893d b70d a33a 21b4 953b b672 2cbd
000000c0: 7ffc 79bc 195b 9bbc e8ee afbc 1776 f9bc
000000d0: a148 85bb 21c5 a63d 00f8 523d 8858 083e
000000e0: 2da7 0e3e e2b4 ae3d 2b93 383d edb5 d4bc
000000f0: 3e1c e53c 7cac 453d 6894 ce3c 70da 963d
00000100: 72e7 e03c e023 6c3d 5928 5a3d f525 473d
00000110: 34aa 17bd a46a 7ebd aa7a 6abd ed8e eebd
00000120: 17d4 1dbd 62be b6bd 4cfb d5bd ad82 febd
00000130: 6a34 18be 6630 a83d eae9 683d 2123 433a
00000140: 29e3 65bd 18de aabd a7b6 b9bc dd65 14bd
00000150: abc0 f93b e0fb 6dbd a5c6 14be 664b e5bd
00000160: 3c81 65be 9ba1 62be 15f0 5bbe e2ff 3cbe
00000170: 10a3 1dbe 3cf7 28be 16db dabd 7ce0 6cbd
00000180: abb1 14bd a676 073d 336e 1c3d fe35 f9bd
00000190: 914d dabd b352 bdbd 2a29 a3bd baa2 b3bd
000001a0: 3c5b ffbd d6d8 bbbd 15cb a8bd f766 90bd
000001b0: 76dc 1abd eda7 34bd 5668 dbbc 08ac 8cbd
000001c0: 86f6 42bd bffe aa3c 3bc0 093d 02c4 dbbc
000001d0: 3245 febc 2f42 debc a769 ccbc 8a2e 3abc
000001e0: 64b4 b53d fd08 ccbd 3334 d3bc bc15 43bd
000001f0: f4ab eabc fb65 fabc d2cb 03bd 48d7 2fbc
00000200: 8a0e 803d 4361 e23d a1fe 5c3d 84b1 e33d
00000210: 90b2 9d3d 2470 833d a552 ed3d c87c 933c
00000220: 257a 9a3c a91e 50bc ce8c 04bd ed61 763b
00000230: fb6d 89bd 50a7 8dbd 5d24 63bd 2a8b 453d
00000240: a342 1a3d eaf7 043e 5978 4d3e aa3b 353e
00000250: 7f06 0b3e 7660 ee3d 2db8 b93d 5534 823d
00000260: 9706 a33b ad8b 82bd 2c9c 06be e201 c9bd
00000270: 89e6 dcbd f901 b7bd aa0d 24be 7f62 16be
00000280: 44eb a0bd d5a0 18bc 443c 363d 2d75 473d
00000290: 9dcd 043d 7d75 babd 17b3 05bd 58f2 2bbc
000002a0: 7a95 cb3c 9315 983d 5631 103d 0dfa c63d
000002b0: 99f5 0b3d 7f20 783d 6259 5cbb 34b2 46bd
000002c0: c49e 76bc 4b48 69bd b68d b2bd 07d2 9bbd
000002d0: 4dbe 99bd 4fcb 36bd f604 ebbc cabe 5abd
000002e0: ae5c a7bc 820e 18ba 1913 8b3b df28 99bc
000002f0: b494 1cbd f2f5 0ebe 22b1 07be 23f8 16be
00000300: ae70 fbbd 3f0c ebbd 7115 8bbd 2fa1 99bc
00000310: f251 31bd 1000 87bb dea2 11bd d2da 87bc
00000320: ed46 f4bb 89a1 63bc fc6d b4bc 80df 3abc
00000330: ff48 4bbc 738d 08bc bb9a 133c e275 2f3d
00000340: 8dcc 823d 5747 863d 4c27 663a b92c 96bc
00000350: 5572 8cbc 6cb6 153d 08f7 433d ca73 0e3d
00000360: 164b 1d3d 8b3d 023d 9aa2 463c 5ace 18bc
00000370: b8ac 163e 0c9d 903d bea2 763d 7144 163c
00000380: 385f 2dbd ee8a 71bd 639f ddbd 761a afbd
00000390: 5b99 e4bd 4f16 c9bd d897 cbbd 8e58 b83d
000003a0: 9b79 b33d f1aa 693d 337e 86bc e0a9 3cbd
000003b0: bf30 3abd 68f9 6cbd 406f e3bb ce48 123d
000003c0: ae56 f13c 73fd 5f3c 3093 dc3c 0581 ca3c
000003d0: b123 833b 650e 1a3d 63eb 09bc d292 8dbb
000003e0: e7c8 87bd e791 00bd fe47 19bc 2a48 86bc
000003f0: 9f34 9f3c b395 e2bd afa0 e0bd 5cdc aabc
0.078699134 0.021427719 0.07258304 0.049148396 0.009007608 -0.032050375 -0.05059065 -0.0074459794
0.0017926455 0.011320398 0.086249255 0.06774956 0.0520771 0.03569635 0.021210086 -0.0008907964
-0.004587654 -0.0040552747 -0.01938264 -0.019414661 0.013977107 0.03475001 0.15701656 0.124469034
0.022016123 -0.052222475 -0.088536136 -0.091562495 -0.046886347 0.0059482865 0.052513197 0.14154764
0.17746612 0.19201 0.14661917 0.1217885 0.016830022 -0.06564806 -0.08853012 0.022742571
0.035146933 0.07319987 0.054181088 0.15256843 0.06715925 0.001244 0.004568592 -0.042101584
-0.015257954 -0.018964337 -0.021476224 -0.030451817 -0.004067496 0.08143068 0.051506042 0.13315022
0.1393096 0.085305944 0.045062225 -0.025965655 0.027967568 0.048260197 0.02521725 0.073658824
0.027454112 0.0576514 0.053261135 0.048620183 -0.037027553 -0.06211342 -0.057245888 -0.11648355
-0.038532343 -0.089230314 -0.10448322 -0.12427268 -0.14863744 0.08212356 0.056863703 0.0007443894
-0.05612484 -0.08343142 -0.022670103 -0.036229957 0.0076218448 -0.058101535 -0.14528902 -0.11196022
-0.2241258 -0.2213196 -0.21478303 -0.18456987 -0.15394235 -0.16500562 -0.106863186 -0.057831272
-0.03630225 0.033072136 0.03819103 -0.12168501 -0.10659326 -0.09244289 -0.07966836 -0.08771272
-0.124685735 -0.091722175 -0.0824186 -0.07050889 -0.037807904 -0.04410546 -0.02678315 -0.0686875
-0.047598384 0.020873426 0.03363059 -0.026826862 -0.031038854 -0.027131168 -0.024952723 -0.011363635
0.088722974 -0.09962652 -0.025781726 -0.04762815 -0.028646447 -0.030566206 -0.0321768 -0.010732479
0.06252773 0.110537075 0.05395377 0.11117843 0.07700074 0.064178735 0.11588029 0.018003836
0.018857071 -0.012702622 -0.032360844 0.003759499 -0.0671043 -0.06916678 -0.0554546 0.04822842
0.037661206 0.12985197 0.2006544 0.17698541 0.13576697 0.11639492 0.09068332 0.06357638
0.004975151 -0.06374297 -0.13145512 -0.09814812 -0.107861586 -0.08935923 -0.16020837 -0.14686011
-0.07857373 -0.009315689 0.044491068 0.048695732 0.03242265 -0.0910444 -0.032641497 -0.010494791
0.02485155 0.0742599 0.0352033 0.09715662 0.034169767 0.060577866 -0.0033622612 -0.04850979
-0.015052501 -0.05695371 -0.087184355 -0.07608419 -0.07507 -0.044627484 -0.028688889 -0.053404607
-0.020429935 -0.00058005017 0.00424422 -0.018696247 -0.03822775 -0.13961008 -0.13251165 -0.14743094
-0.12277351 -0.11476945 -0.06791199 -0.018753616 -0.04329104 -0.0041198805 -0.035555713 -0.016583834
-0.007454744 -0.013893493 -0.0220251 -0.011405826 -0.01240754 -0.008334505 0.009009059 0.04283703
0.06386671 0.06556576 0.00087796594 -0.018331872 -0.017144362 0.036550924 0.04784301 0.034778394
0.038401686 0.031796973 0.012123728 -0.009326542 0.14714324 0.07061204 0.060213797 0.009171591
-0.042327136 -0.058970384 -0.10821416 -0.08549969 -0.11162063 -0.09818708 -0.09941071 0.090012655
0.08763429 0.057047788 -0.016417598 -0.046060443 -0.045456644 -0.05785504 -0.0069407523 0.035713963
0.029460277 0.013671267 0.026925653 0.024719724 0.0040020575 0.037611384 -0.008417937 -0.004320481
-0.06630116 -0.031389143 -0.009355543 -0.016391832 0.019434271 -0.11063709 -0.10968148 -0.020857029

separableConv.1.weight f4 [32]
00000000: 1d63 a63f 53ae a53f 71d0 af3f cf93 b63f
00000010: 6a6a bd3f 6c44 a23f afd0 a33f 2930 a13f
00000020: c6b3 c03f 742e 9b3f c5a8 b83f a1f7 bc3f
00000030: 66f0 ba3f 72b6 983f a37b a43f 8c54 af3f
00000040: cde7 9b3f 6b7e a33f b2ab 983f 8814 bb3f
00000050: 07d6 b63f d055 a23f 95dd 963f dfaf 993f
00000060: 6dfc 9a3f d931 b13f f36d b63f a602 b43f
00000070: 035e 953f a230 be3f 4d37 b03f 4977 a73f
1.2998997 1.2943825 1.3735486 1.4263858 1.47981 1.2677131 1.279806 1.2592822
1.5054862 1.2123551 1.4426504 1.476307 1.4604614 1.1930678 1.2850231 1.3697677
1.2180115 1.2772955 1.1927397 1.4615641 1.4284066 1.2682438 1.1786371 1.2006797
1.2108284 1.3843337 1.4252304 1.4063308 1.1669315 1.4858592 1.3766876 1.3083278

separableConv.1.bias f4 [32]
00000000: dacd 84be 9809 94be 86ce 15bf 9604 f0be
00000010: 9260 02bf 7bad 00bf f683 0abf 47ac f9be
00000020: 6ba9 06bf 121d d5be 8414 d8be 7d20 1abf
00000030: 2ccb 54be ef92 1fbe 60b5 91be 4da5 ecbe
00000040: f4d4 bdbe 3140 c2be a77d 8bbe 0344 27bf
00000050: 9434 dbbe 7c75 8ebe 4218 b1be e3e3 b7be
00000060: 3af6 adbe 05f8 b3be bc10 d2be 3511 e8be
00000070: 1857 b0be 03f7 0abf 5e75 dbbe 3355 16bf
-0.25938302 -0.2891357 -0.58518255 -0.468785 -0.50928605 -0.5026471 -0.54107606 -0.4876425
-0.5260226 -0.4162374 -0.42203152 -0.60205823 -0.20780629 -0.15583394 -0.2845869 -0.46219864
-0.37076533 -0.379396 -0.27244303 -0.6533815 -0.4281355 -0.27824008 -0.3458882 -0.3591605
-0.33976918 -0.3515016 -0.41028392 -0.45325628 -0.34441447 -0.5428316 -0.42862982 -0.58723754

separableConv.1.running_mean f4 [32]
00000000: 69a6 dfbe b2b4 09bf b65b 0bbf 7d01 f3be
00000010: 8683 b7be 6ad3 0bbf f2ba 0fbf 5311 1d3e
00000020: f759 00bf 68a5 03bf 59c3 96be e6d7 26bf
00000030: bb59 9f3e ceea 35be 8c74 e0be 62af e4be
00000040: 3640 c9be d944 89be 33ab 943d fefe ebbe
00000050: 678f e7be 85e3 98be ddb4 d0be f877 40bf
00000060: b3aa 00bf a4cd 0fbd ae0b 15bf 35ed fabe
00000070: 8449 03bf 8b27 10bf cce2 873e f757 18bf
-0.43681648 -0.53791344 -0.54436815 -0.47462073 -0.35842532 -0.5461947 -0.5614463 0.1533864
-0.50137275 -0.51424265 -0.29445913 -0.65173185 0.31123146 -0.17765352 -0.43838918 -0.44665056
-0.39306802 -0.2681034 0.07259216 -0.4609298 -0.45226595 -0.29861084 -0.40762988 -0.7518306
-0.50260466 -0.035108224 -0.58220947 -0.490091 -0.5128405 -0.5631034 0.2654022 -0.59509224

separableConv.1.running_var f4 [32]
00000000: 24d3 353f 0445 273f d64c 183f 48da 0b3f
00000010: 86fd d43e 42dc 033f aa29 443f d46c 003f
00000020: 9c10 1d3f d2c4 eb3e 7dcf e53e 1312 1e3f
00000030: 4257 453f 2611 df3e e674 413f 2567 173f
00000040: 9857 e63e 1ccc b83e 0874 f23e 768c 2d3f
00000050: 5cd5 123f eca2 103f 1808 023f e3b9 543f
00000060: 8a86 ea3e 9ed0 013f 0c58 403f b572 df3e
00000070: e296 193f 5ae7 143f 26da 133f 1818 3f3f
0.710253 0.65339684 0.5949224 0.54629946 0.41599673 0.5150796 0.76626074 0.5016606
0.6135347 0.460486 0.44884863 0.6174633 0.7708627 0.4356777 0.75569 0.5914176
0.44988704 0.36093223 0.4735415 0.6779245 0.5735681 0.564986 0.507936 0.8309614
0.4580577 0.5070895 0.7513435 0.43642202 0.59995854 0.58165514 0.57754743 0.7464614

classify.0.weight f4 [2, 736]
00000000: 5685 e93e 299f 873e 7d5d 8f3e 8560 d23e
00000010: 1edf c8bc 5df1 013e 6ab1 413e c344 fd3b
00000020: 9b70 90bd 0f62 f03c db8d ea3c 5dcb 80bd
00000030: a74f 6f3d 8696 423e 1a03 f0bc b6e0 1bbd
00000040: fa2d ae3d 5076 b9bc bc2d 183d 7568 333d
00000050: d4b3 95bc 1324 23bc 5082 76be 0055 d93e
00000060: 8017 9c3e dad1 cfbb 0858 433e a342 d73d
00000070: c2be 313e 1eb5 e83d b527 0d3d 6efe 843d
00000080: 9921 813d dbeb 00bd 2e88 2c3d 9e82 743d
00000090: a06b a7be ec19 0d3e c29a fa3d 7eab 5c3e
000000a0: b9c4 4ebe d8e4 9d3c ac6f 7e3d 5c07 583d
000000b0: 2a2c 103e 748e acbc 9f5a 973e 896b c93d
000000c0: 8e97 8f3b 3848 fd3d eea3 20be a1a8 cdbd
000000d0: d7ce e3bd b961 9cbd 9ce9 46be e350 0bbe
000000e0: a8c5 95bd 0dff 6ebe 03a2 18be a44b b9be
000000f0: c77e d53e 7794 b4be d327 b63c 8095 07be
00000100: dc96 3b3d 857b 953d b5c3 f4bc 0576 813e
00000110: 2e43 0fbe 00b0 083f 8ed0 253e 2360 b13e
00000120: db69 d63d abb2 b1bd 1866 8dba c4b3 0f3e
00000130: 1579 a0bd a12e 9cbd b18f bb3d 4ed2 59bd
00000140: 2acc 8ebd 9918 373e eae2 553e 229e 23be
00000150: 7638 a53c e469 963d d78c 1f3b f304 4dbd
00000160: 4524 06bd 7705 9cbc 63ca ad3c 395d 98be
00000170: 24e9 81be b9c9 09bf 9a03 783e 770a 5a3d
00000180: baf1 c23d 0946 bfbd acb8 0f3e 2ef2 1bbe
00000190: 24d3 f2bc e64a 1c3e dd07 1d3e 5dbc a33e
000001a0: 9784 313d 948e 193e 0fe8 9ebd 1e44 eb3d
000001b0: f8bb 9ebd daae 9c3d 9331 03bd 8b6f b5bd
000001c0: 6653 83bd 8139 50bd 8dd0 6e3e f1e6 ffbe
000001d0: 6fe2 05bd 7089 afbe 88a4 65be 5cfe a7bd
000001e0: 72f2 653d 761a 0ebd 65f5 28bd 60a7 063e
000001f0: 33ba cb3d 87bb 323e c872 103e aabc 7d3e
00000200: 0c81 a83e 09f5 52bd b48b e4bc 2a57 83bd
00000210: d9ef 16be 7425 1ebe 7394 16be 6a01 56bd
00000220: 341d 1fbe 2cd3 a2bd b7b4 86be 9bcc b9bd
00000230: f0ae 1f3d d30d 013e c005 283e b8f2 923e
00000240: 3753 dc3d 766c 263e 081a ba3e 95b4 7e3e
00000250: 71ae 743e 65c1 a83e 3f90 883e ac63 c93c
00000260: 87a8 323d 2f49 033e 4e51 6e3e 7603 3f3d
00000270: 24b4 c53d 81a7 d3bc ea50 cdbc 8e2d 15be
00000280: f23c e13d afaf 353e 2c06 02bd aeb0 923e
00000290: 3442 8f3d cabb 603d 51d8 653e 535c 1d3e
000002a0: 065c 1a3e d1f0 963e 9d8b be3e c6c4 843e
000002b0: ce36 453e bc95 983e c363 e03d 088f 95bb
000002c0: f45b bfbd 7e4b bfbd c6cf 37bd 4c86 ae3a
000002d0: 301f 84bd 13b5 ec3c 457f aa3c 7457 863d
000002e0: 349d fa3e 5f0f 843e 7882 353e 8cc3 bdbd
000002f0: b580 bc3e b26c 08be 7c63 1dbe aa38 fd3a
00000300: 42c9 20be ee9d c9bd c681 d63d b7da 4cbe
00000310: a7d9 843e 786a 31be 7ac7 4abd b9c2 873d
00000320: 93b9 14be 7aba 77be a047 afbd fb0f 0bbd
00000330: 9e8d 0cbd 8772 13be 18e2 c5bd 2193 87be
00000340: 03a5 10be 9132 13be 89f5 9c3d f650 36be
00000350: 1217 583b 5472 45be 2b09 883e 0197 5f3d
00000360: 1fa4 89bd 6a25 93be 7e6a 243e 8afb 6abe
00000370: 8c12 873e 93f2 eb3d af0e 2e3b 63e7 7fbe
00000380: b99c 0dbe e409 643d 8ea7 5cbd 4198 2abe
00000390: 93dc 56be fb35 dcbb ddcc a4be 0da3 28bf
000003a0: c583 00be cf06 303e 65e1 4cbd 8c15 dbbd
000003b0: 6b4a 873c 69b6 653e d639 a6be 5cb5 94bb
000003c0: 4ffc 833d bd6a 37be 8456 5bbd 853e a7bd
000003d0: 4cd7 0d3e 64ac 923d 7aa2 8fbd 3502 ff3c
000003e0: 0813 01be 554f 4cbc 66c7 063d 2bbd 0fbd
000003f0: cfcc 393d 1826 803e c8aa 6d3e c718 bfbd
0.4560954 0.26488617 0.28001013 0.41089264 -0.024520453 0.12689729 0.18915334 0.0077291443
-0.07052728 0.029343633 0.028632095 -0.062887885 0.05842557 0.19002733 -0.029298354 -0.038056098
0.08504863 -0.022639424 0.03715299 0.04380079 -0.018274225 -0.009957331 -0.24073148 0.42447662
0.3048668 -0.006342155 0.1907655 0.10510757 0.17357925 0.1136267 0.034461696 0.06493841
0.06305236 -0.03147493 0.04212206 0.05969488 -0.326993 0.1377942 0.12236549 0.21549794
-0.20192231 0.01927416 0.062118217 0.052741393 0.14079347 -0.02106402 0.29561326 0.09834964
0.0043820804 0.1236729 -0.15687534 -0.10041929 -0.11123436 -0.076358266 -0.19425052 -0.13605075
-0.073130906 -0.23339482 -0.14905553 -0.36190522 0.41698286 -0.3526952 0.022235787 -0.13240623
0.045798168 0.0729895 -0.029878477 0.25285354 -0.13990471 0.53393555 0.16192839 0.3464366
0.10469409 -0.08676656 -0.0010787873 0.14033419 -0.078355946 -0.07626081 0.09158266 -0.053179078
-0.06972535 0.17880477 0.20887342 -0.15978292 0.020168524 0.07344416 0.0024345422 -0.050053548
-0.032749433 -0.019045575 0.02121467 -0.29758623 -0.25373185 -0.5382343 0.24220124 0.053232636
0.09518762 -0.0933953 0.1403529 -0.15229103 -0.029641695 0.15262946 0.15335031 0.31979647
0.04333934 0.14995795 -0.077591054 0.11487602 -0.07750696 0.07650538 -0.0320297 -0.08859166
-0.06412391 -0.05083609 0.23321743 -0.49980882 -0.032686647 -0.34284544 -0.22426045 -0.08202812
0.056139417 -0.034693204 -0.04124965 0.13149786 0.09947624 0.17454349 0.14106286 0.24779001
0.32910955 -0.051503215 -0.027898647 -0.064131096 -0.14739932 -0.15443975 -0.14705066 -0.052247442
-0.15538484 -0.07950434 -0.2630975 -0.090722285 0.038985193 0.1260293 0.16408443 0.28700805
0.107580595 0.16252312 0.36347985 0.24873574 0.23894669 0.32960048 0.2667255 0.02458366
0.04361775 0.12820886 0.23273203 0.04663416 0.096535 -0.025836708 -0.025062997 -0.14568159
0.109979525 0.17742799 -0.031744167 0.2865042 0.06995049 0.05486659 0.224458 0.1536725
0.15074167 0.29480603 0.3721589 0.25931376 0.19259188 0.29801738 0.10956528 -0.00456417
-0.093437105 -0.09340571 -0.044875883 0.001331517 -0.06451261 0.028894937 0.02081264 0.06559649
0.4894806 0.25792977 0.17725551 -0.09265813 0.36816946 -0.13322714 -0.15369982 0.0019319255
-0.15701774 -0.09844576 0.10473971 -0.20005308 0.25947306 -0.17325771 -0.049506642 0.06628937
-0.14523916 -0.24192229 -0.08558583 -0.033950787 -0.034314744 -0.14399157 -0.096622646 -0.26479438
-0.14125447 -0.14374758 0.076640196 -0.17804322 0.0032972735 -0.19281894 0.26569495 0.054587368
-0.06720757 -0.28739482 0.16056249 -0.22947517 0.26381338 0.11520877 0.0026559045 -0.24990611
-0.13829316 0.055673495 -0.05387073 -0.16659643 -0.2098258 -0.006720302 -0.32187548 -0.65873796
-0.12550266 0.17190097 -0.05001964 -0.10697469 0.016514977 0.22432865 -0.32466 -0.0045382213
0.064446084 -0.17911811 -0.053549305 -0.081662215 0.1385166 0.07161787 -0.07013412 0.031128982
-0.12604916 -0.012470086 0.032905005 -0.035092514 0.045361336 0.25029063 0.23209679 -0.09330898

classify.0.bias f4 [2]
00000000: 0032 803d 9283 54bd
0.06259537 -0.051883288
